test_tflite/model_quantized.tflite (tflite, 235352 bytes, 40 tensors)

arith.constant2 f4 [256]
0	0xbb4b0cd8	-0.0030982997
1	0xbba80645	-0.0051277005
2	0xbb93987f	-0.004504263
3	0xbb44eec1	-0.0030049535
4	0xba77a0ed	-0.0009446282
5	0xbb9b3486	-0.004736486
6	0xbb14f089	-0.0022726378
7	0xbbab8e7d	-0.005235492
8	0xbb11623e	-0.00221838
9	0xbba562f0	-0.0050471947
10	0xbb807a69	-0.0039208424
11	0xbba4c486	-0.00502831
12	0x39ef1990	0.00045604678
13	0x3ad4bff5	0.0016231524
14	0xbb3f0dad	-0.0029152439
15	0xbbaa05ad	-0.005188665
16	0xbb79c86d	-0.0038113848
17	0xbba186f0	-0.004929416
18	0xbbafbb07	-0.0053628716
19	0xbbbcdff4	-0.005764002
20	0xba9ff296	-0.0012203034
21	0xbc06df6c	-0.008231979
22	0xbb9bb825	-0.0047521763
23	0xbb1d4dc1	-0.0024002644
24	0xbbbddadc	-0.0057939123
25	0xbb5cd37a	-0.0033695386
26	0xbb94ab74	-0.0045370404
27	0xbb2d48c8	-0.0026441086
28	0xba1fad7d	-0.00060912204
29	0xbb63e5b7	-0.0034774372
30	0xbae3a571	-0.0017368031
31	0xbb271e6f	-0.0025500318
32	0xbb1edfda	-0.0024242313
33	0xbb8bd6d0	-0.004267551
34	0xbb86f77a	-0.004118857
35	0xbb04221a	-0.0020161928
36	0xbb7ca4eb	-0.0038550447
37	0xbb2305c1	-0.0024875256
38	0xbb555a94	-0.003255521
39	0xbbc6023a	-0.006042746
40	0xbbe5a1ff	-0.007007837
41	0xbb4b3c96	-0.0031011454
42	0xbb807bb6	-0.0039209975
43	0xbb58ab4d	-0.0033061088
44	0xbad69271	-0.0016370547
45	0xbba25272	-0.004953676
46	0xbb6573cd	-0.003501165
47	0xbb856eea	-0.00407206
48	0xbb6504de	-0.0034945528
49	0xbba65d06	-0.005077007
50	0xbba64741	-0.005074412
51	0xba69a1d0	-0.00089123566
52	0xbb356846	-0.002768056
53	0xbb96c008	-0.0046005286
54	0xbaabbcc6	-0.0013102524
55	0xbb8bda2e	-0.0042679524
56	0xbb2fac1d	-0.0026805468
57	0xbb29d1ed	-0.002591248
58	0xba35195d	-0.00069083815
59	0xbb889c64	-0.004169034
60	0xba408e97	-0.00073454663
61	0xba5883c2	-0.00082593795
62	0xbb464a37	-0.0030256638
63	0x3b0d50f4	0.0021563144
64	0x3aa1fdb9	0.001235894
65	0xbbbf95d1	-0.005846717
66	0xbb87c96f	-0.004143886
67	0xbbe6054e	-0.0070196753
68	0xbb5e97f2	-0.0033965078
69	0x3b213464	0.0024597878
70	0xbb984bea	-0.0046477215
71	0xbb32f3cc	-0.0027305959
72	0x3abe6382	0.0014525505
73	0xbb93e9c3	-0.0045139506
74	0x3ab20a53	0.0013583399
75	0xbb1ec114	-0.002422397
76	0xbb7a8c70	-0.003823068
77	0xbae1d7e0	-0.0017230473
78	0xbb3484d7	-0.0027545
79	0xbb04ee6c	-0.0020283712
80	0xba9d354e	-0.0011994035
81	0xb9933212	-0.0002807533
82	0xbb96083b	-0.004578618
83	0xbb991bdb	-0.00467251
84	0xbab5df82	-0.0013875815
85	0xbbb44334	-0.0055011753
86	0xbc11b54c	-0.008893322
87	0xbbbe3ea5	-0.0058058077
88	0xbb5f42a3	-0.0034066818
89	0xba55582d	-0.00081384444
90	0xbb4e2876	-0.0031457222
91	0xbb19fd93	-0.002349709
92	0xbba5c718	-0.005059134
93	0xbbe967d2	-0.007122972
94	0xbb457e3c	-0.0030135056
95	0xbab29c8a	-0.0013626975
96	0xbbdcdccd	-0.0067401887
97	0xbad98e31	-0.0016598162
98	0xbb05c981	-0.0020414295
99	0xbb94f589	-0.0045458716
100	0xbb382b93	-0.0028102144
101	0xbb889d40	-0.0041691363
102	0xbb3785bc	-0.0028003296
103	0xbb48decc	-0.0030650375
104	0xbb348d48	-0.002755003
105	0xbbe53bef	-0.00699567
106	0xbb8e8788	-0.0043496527
107	0xbb4314ff	-0.0029767153
108	0xbb526b66	-0.0032107471
109	0xbb9405af	-0.004517279
110	0xbac509cc	-0.0015032827
111	0xbbed6564	-0.0072447527
112	0xbb46a685	-0.0030311656
113	0xbb3f08a2	-0.0029149433
114	0x3961824c	0.00021506211
115	0xbb0311e9	-0.001999969
116	0xbba2a2f3	-0.0049632727
117	0x3b063b7b	0.002048223
118	0xbb9e0f9b	-0.0048236377
119	0xbb6043cb	-0.0034220095
120	0xbabe07d5	-0.0014498184
121	0xba9cbaaa	-0.0011957486
122	0xba403ea7	-0.00073335547
123	0xbb966c46	-0.004590544
124	0xbb1769d0	-0.002310384
125	0xbb3d9677	-0.0028928795
126	0xba849fb3	-0.0010118395
127	0xbbe69b08	-0.007037524
128	0xbb610b82	-0.0034339135
129	0xbb32bada	-0.0027272017
130	0xbb302c1c	-0.002688176
131	0xbb002aea	-0.0019556829
132	0xbbb8663a	-0.0056274207
133	0xbb4a3898	-0.0030856486
134	0xbb323faa	-0.0027198591
135	0xbb03927a	-0.002007632
136	0xba8e0350	-0.0010834727
137	0xbbb80e69	-0.005616952
138	0xbb328bae	-0.00272439
139	0xbbba98a1	-0.0056944643
140	0xbb358df8	-0.0027703028
141	0xbbf537f9	-0.007483479
142	0xbb89163c	-0.0041835587
143	0xbb8f12c3	-0.0043662502
144	0xbbe86158	-0.0070916824
145	0xbb205131	-0.0024462456
146	0xbb6a5930	-0.0035758726
147	0xbac353ec	-0.001490233
148	0xbb850a73	-0.0040600835
149	0xbb5cf728	-0.0033716653
150	0xbb91100e	-0.0044269627
151	0xbb92f225	-0.0044844323
152	0xba9aa3bd	-0.0011798065
153	0xbabd98ff	-0.0014465152
154	0xbb9ab5aa	-0.004721363
155	0xbb6eb57a	-0.0036424086
156	0xbb3906b6	-0.002823276
157	0xba8060ac	-0.0009794435
158	0xbb5a0500	-0.003326714
159	0xbb8aa6d0	-0.0042313114
160	0xbb50a870	-0.0031838678
161	0xbac162e5	-0.0014754204
162	0xbb0eb46f	-0.0021775027
163	0xbb674f30	-0.0035295002
164	0xbb97f91a	-0.0046378495
165	0xba90cb2a	-0.0011046876
166	0xbb7c1cdb	-0.0038469348
167	0xbb990573	-0.004669839
168	0x3bcc0276	0.0062258793
169	0xbb973888	-0.0046148933
170	0xba101077	-0.00054956175
171	0xbb2bb490	-0.0026200153
172	0xbb47751c	-0.0030434793
173	0xbb807bc9	-0.0039210063
174	0xbb48ddde	-0.0030649821
175	0xbb8e5709	-0.0043438715
176	0xbb9156a9	-0.0044353795
177	0xbb4fcaaf	-0.0031706502
178	0xba1f6e35	-0.0006081791
179	0xbae096f1	-0.0017134828
180	0xbb5f14c6	-0.0034039482
181	0xba909507	-0.0011030742
182	0xba83e696	-0.0010063227
183	0xbba92ab0	-0.0051625594
184	0xbbb054ba	-0.005381194
185	0xbb515c64	-0.0031945938
186	0xbb4dfc43	-0.0031430877
187	0xbafa1ac8	-0.0019081468
188	0xbaed9259	-0.001812528
189	0xb870d507	-5.7418856e-05
190	0xbb92a47a	-0.0044751735
191	0xbae0307a	-0.0017104291
192	0xbb4320a7	-0.00297741
193	0xbb4bdc8b	-0.0031106796
194	0xbb61ec7a	-0.0034473226
195	0xbacb37b3	-0.001550427
196	0xba6e841b	-0.0009098665
197	0x3a4ee1cf	0.00078919245
198	0xbaed2439	-0.001809246
199	0xbb23c357	-0.0024988258
200	0xbaab0f39	-0.0013050801
201	0xbb6749b6	-0.0035291738
202	0xbb394e83	-0.0028275556
203	0xbb845071	-0.0040379097
204	0xbb5e007b	-0.0033874798
205	0xbb94ed48	-0.0045448877
206	0xbabd530a	-0.0014444303
207	0xbbd552e7	-0.006510127
208	0xbb626feb	-0.0034551572
209	0x3a22749a	0.00061971846
210	0xbb7bd1d9	-0.003842464
211	0xbb52a43d	-0.003214135
212	0xb8c18b12	-9.228861e-05
213	0xbb5bf463	-0.0033562414
214	0xbb1d18ad	-0.0023971007
215	0x3a280044	0.0006408731
216	0xbb7e0579	-0.0038760586
217	0xbb6e9c96	-0.003640925
218	0xbbb720c0	-0.005588621
219	0xbb80f19d	-0.0039350525
220	0xba5596d7	-0.0008147782
221	0xbbc4931c	-0.005998982
222	0xbab827dd	-0.0014049966
223	0xb781997b	-1.5449468e-05
224	0xbb55ab29	-0.003260324
225	0xbb4d55b9	-0.0031331612
226	0xbba93339	-0.005163577
227	0xbb905b22	-0.004405395
228	0x38cd39a6	9.7858996e-05
229	0x3aba23da	0.0014201358
230	0xbb5db3d2	-0.0033829105
231	0xbb66f98b	-0.0035243954
232	0xbb8660d3	-0.004100898
233	0xbbbafcc7	-0.005706403
234	0xbb81e7ac	-0.003964385
235	0x3b9752fc	0.004618047
236	0xbb8f0136	-0.004364158
237	0xbb3b6274	-0.0028592618
238	0xbb4cf5ec	-0.003127451
239	0xbbb13809	-0.0054082912
240	0xbb5b63c6	-0.0033476218
241	0xbb8b24bd	-0.004246323
242	0xbb016815	-0.0019745876
243	0xbbe3ac44	-0.006948026
244	0xb9c3f377	-0.00037374694
245	0xba98c377	-0.0011654933
246	0xbb8fc590	-0.004387565
247	0xba70f10d	-0.0009191193
248	0xbb2c07de	-0.0026249806
249	0xbbe26bdf	-0.006909832
250	0xbb4c48f3	-0.003117141
251	0xbba9eda3	-0.005185799
252	0xbbfcfe12	-0.007720717
253	0x3ac6343b	0.0015121767
254	0x3a15ea70	0.0005718833
255	0xbb9bd7c0	-0.004755944

arith.constant3 f4 [3]
0	0x3a2a21da	0.00064900296
1	0x3ab5fdc6	0.0013884834
2	0xb93fa9a9	-0.00018278383

arith.constant4 f4 [3, 256]
0	0x3e0c48ea	0.1369969
1	0xbde23636	-0.11045496
2	0x3da62752	0.081129685
3	0xbd4a1098	-0.04933223
4	0xbbd752d8	-0.006571155
5	0x3e0e5a9a	0.13901749
6	0x3d00c290	0.03143555
7	0xbd223fd4	-0.039611652
8	0xbb520cc5	-0.0032051068
9	0xbe0e637f	-0.13905142
10	0xbda83b8d	-0.082144834
11	0x3d26fb94	0.040767267
12	0xbc1301ae	-0.008972568
13	0x3d38d431	0.045124236
14	0x3ddbce55	0.10732714
15	0xbdf33027	-0.11874419
16	0xbe02b21c	-0.12763256
17	0x3d96c38c	0.07361516
18	0x3bb938d5	0.005652527
19	0x3de101d7	0.10986679
20	0xbca56247	-0.020188464
21	0xbd95713e	-0.0729699
22	0xbd38a4f1	-0.045079175
23	0x3c790e5e	0.015201179
24	0xbe036b2e	-0.12833855
25	0xbe03cca3	-0.12871031
26	0xbbc507c0	-0.0060128868
27	0xbc184c49	-0.009295532
28	0x3b9f76be	0.00486645
29	0xbd2fa496	-0.04288157
30	0xbddc9b0e	-0.10771762
31	0xbd0507c0	-0.032478094
32	0xbb48c702	-0.0030636196
33	0xbc6d3993	-0.014479059
34	0xbb98e111	-0.004665502
35	0x3db7ee47	0.08980995
36	0xbde40995	-0.1113464
37	0x3cf898d2	0.030346308
38	0x3d526d95	0.051374037
39	0x3e0c2ddc	0.13689369
40	0xbd5afbfa	-0.05346296
41	0x3d99c0fb	0.07507511
42	0xbb32fd65	-0.002731168
43	0xbdcf7585	-0.10129837
44	0x3e1305ce	0.14357683
45	0xbda78693	-0.08179965
46	0xbd823a4d	-0.06358776
47	0xbdd794d5	-0.10526434
48	0x3d7b8c09	0.061412845
49	0xbe0a4ac3	-0.13505082
50	0xbd695f6c	-0.056975767
51	0xbc949675	-0.01813815
52	0x3c60fa0f	0.013731494
53	0xbd308a8c	-0.04310088
54	0xbdfed780	-0.12443447
55	0xbc8d554c	-0.017252587
56	0xbd872f64	-0.06600836
57	0x3e07712d	0.13226767
58	0x3dfab498	0.12241477
59	0x3ca46da2	0.020071808
60	0x3d902340	0.070379734
61	0xbddbbd15	-0.10729424
62	0x3c78d68a	0.015187869
63	0x3d20036e	0.03906577
64	0xbdd47034	-0.103729635
65	0x3ce554c9	0.02799453
66	0x3e028ea3	0.12749724
67	0x3de53cae	0.11193214
68	0xbda11e6f	-0.07867133
69	0x3d0faa90	0.03507477
70	0xbdb1fee4	-0.08691195
71	0xbda9bc35	-0.08287851
72	0x3ca009c2	0.019535903
73	0xbe0638ba	-0.13107577
74	0x3d0820fd	0.033234585
75	0x3c082c7c	0.008311387
76	0xbe07e586	-0.1327115
77	0xbd12e051	-0.035858456
78	0x3d2e5efb	0.04257105
79	0x3d7d8537	0.06189462
80	0x3c1ee256	0.009697517
81	0x3c049df5	0.0080943005
82	0x3e0bf98c	0.13669413
83	0x3dd86a43	0.10567143
84	0xbdbd7d02	-0.09252359
85	0xbe0e7daf	-0.13915132
86	0x3e0c2f82	0.13689998
87	0xbd81f5b3	-0.063456915
88	0xbdf88b41	-0.121359356
89	0xbd6c126f	-0.057634767
90	0x3d88bdbc	0.06676814
91	0xbd8456fe	-0.06461905
92	0x3e0209ed	0.12699099
93	0xbe11e7db	-0.14248602
94	0x3e05333c	0.13007826
95	0x3e11cfeb	0.1423947
96	0xbe0f71f7	-0.14008318
97	0xbd2f332d	-0.042773414
98	0xbc8225c8	-0.015887156
99	0xbd7c2271	-0.061556283
100	0x3d44bc87	0.048031356
101	0xbd29babd	-0.041437853
102	0xbbe09a38	-0.006854322
103	0xbdcaa393	-0.098944806
104	0x3dbf156d	0.093302585
105	0xbdccdb6f	-0.10002791
106	0xbd29458d	-0.041326094
107	0xbe0dba4d	-0.138406
108	0xbc223efe	-0.009902714
109	0x3e058538	0.130391
110	0xbde63317	-0.11240213
111	0xbd9c2d28	-0.076258
112	0x3d60e35d	0.05490433
113	0x3da45e50	0.08025801
114	0x3d84d9d3	0.06486859
115	0xbe0e6229	-0.13904633
116	0x3df5f24d	0.12009106
117	0x3bef553d	0.0073038624
118	0x3d400a34	0.04688473
119	0x3d835dc5	0.064143695
120	0x3c9810cd	0.018562699
121	0xbdf23e0a	-0.11828239
122	0xbd634b44	-0.0554917
123	0xbd85cd2b	-0.06533273
124	0x3cab8328	0.020936564
125	0x3a3999b9	0.00070800964
126	0xbcdd536e	-0.027017321
127	0xbdf56790	-0.119826436
128	0x3de7346a	0.11289294
129	0x3dcb8e18	0.099392116
130	0xbd238e76	-0.039930783
131	0xbd5834e2	-0.052784808
132	0x3d935a60	0.07194972
133	0xbc7aeca9	-0.015315213
134	0x3ca36620	0.019946158
135	0xbd4d3161	-0.05009592
136	0xbcf703a0	-0.030153096
137	0x3e04f44d	0.12983818
138	0x3d5047ba	0.050849654
139	0xbccda9e5	-0.025105426
140	0x3cbc8ade	0.023015436
141	0xbe06dd03	-0.13170247
142	0x3d78cb7c	0.060740933
143	0x3deb79e0	0.11497855
144	0x3d8b6d5e	0.068079695
145	0xbdf37956	-0.11888377
146	0x3c6bd891	0.014394895
147	0x3d78972c	0.060691044
148	0x3da2ea8a	0.07954891
149	0xbd9a0890	-0.075211644
150	0xbd4d216a	-0.050080694
151	0xbd2d564b	-0.042318624
152	0xbda827fb	-0.08210751
153	0xbe02a30e	-0.12757513
154	0x3def941b	0.11698171
155	0xbd8a7bb0	-0.06761873
156	0x3d80d5f0	0.06290805
157	0xbd8c6b55	-0.068564095
158	0xbbcff1b5	-0.0063459524
159	0xbcf3ba8b	-0.029752037
160	0x3d8de74b	0.06928881
161	0x3d97c1c8	0.07410008
162	0xbda9cb4c	-0.08290729
163	0xbd7f6e00	-0.062360764
164	0xbdfbea82	-0.12300588
165	0xbdc61f59	-0.09673948
166	0xbd9ba87c	-0.07600495
167	0x3df364b9	0.11884446
168	0x3ba27080	0.0049572587
169	0xbe019faf	-0.1265857
170	0xbb634c1c	-0.0034682816
171	0x3ce99f90	0.028518468
172	0xbe01568c	-0.12630671
173	0x3d92905a	0.07156439
174	0xbda534d4	-0.08066717
175	0xbe0ba841	-0.13638403
176	0x3d96c73b	0.07362219
177	0xbe0a36df	-0.13497494
178	0x3cb8e798	0.02257137
179	0x3e12b330	0.14326167
180	0x3cea41e5	0.028595874
181	0x3cc63f32	0.024200056
182	0x3ca12968	0.019673064
183	0xbcf043b6	-0.029329162
184	0xbdb5f6f9	-0.08884997
185	0xbce9117d	-0.028450722
186	0x3dab6253	0.08368363
187	0x3de3b9db	0.111194335
188	0xbe19a23b	-0.15003292
189	0x3bca44f6	0.0061727716
190	0x3dcf5875	0.10124294
191	0x3d72fe3f	0.0593245
192	0xbd2fce2c	-0.04292123
193	0x3dd66bce	0.10469781
194	0xbe06d488	-0.13167012
195	0xbdfe1893	-0.12407031
196	0xbdf2d4ff	-0.11857032
197	0x3db12567	0.08649712
198	0x3db3ccfa	0.087793306
199	0xbd19a67e	-0.037512295
200	0x3cfd29ce	0.030903723
201	0x3c0f87f3	0.00876044
202	0xbdef3c7f	-0.116814606
203	0x3daf3df0	0.085567355
204	0x3cffe2a3	0.031235998
205	0x3da3ab97	0.079917125
206	0x3d82dfed	0.06390367
207	0x3ddd459f	0.10804295
208	0xbd90628b	-0.070500456
209	0x3e0ee6be	0.13955209
210	0x3c869971	0.016430588
211	0x3de3ae2b	0.11117204
212	0xbc6e8c0c	-0.014559757
213	0x3d14baaa	0.03631083
214	0xbdf9a95e	-0.12190507
215	0xbdf446f2	-0.11927594
216	0x3d3e1c81	0.046413902
217	0x3de710d9	0.1128251
218	0x3dca4021	0.09875513
219	0x3e02cfc7	0.12774573
220	0xbd9ccfe5	-0.0765684
221	0x3df3e176	0.11908238
222	0x3d7957ed	0.06087487
223	0x3d766308	0.060153037
224	0xbd87100e	-0.06594859
225	0xbd0deb01	-0.034647945
226	0x3d8535a6	0.06504373
227	0xbd28eaed	-0.041239668
228	0xbe147056	-0.14495978
229	0x3d4ac618	0.049505323
230	0x3db2aeb3	0.087247275
231	0x3b6f2462	0.0036490192
232	0xbd799acc	-0.06093864
233	0x3cde1277	0.027108414
234	0x3d617535	0.055043418
235	0x3c4b54c2	0.012410345
236	0xbdfc9753	-0.1233355
237	0xbc1e015b	-0.009643878
238	0x3c8c5366	0.017129611
239	0xbe0eede5	-0.13957937
240	0xbe14b25f	-0.14521168
241	0x3dfe08a8	0.12403995
242	0xbd2a5978	-0.04158923
243	0xbe1427b4	-0.1446827
244	0xbdfec7e6	-0.12440471
245	0xbca22ed6	-0.019797724
246	0xbe079c9d	-0.13243337
247	0xbd551d60	-0.052029967
248	0xbe0f8b26	-0.14017925
249	0x3e12e902	0.14346698
250	0xbdcafbab	-0.09911283
251	0x3db45603	0.08805468
252	0x3e11f8b3	0.14255027
253	0x3e0ed611	0.13948847
254	0xbddf6179	-0.10907263
255	0x3d7fc68f	0.06244522

arith.constant13 f4 [1, 1, 3, 32]
0	0xbd24e7f1	-0.04026026
1	0x3ef1883a	0.47174245
2	0x4013cfb4	2.3095522
3	0xc01a0927	-2.4068086
4	0x3f35d28d	0.710244
5	0xbf07f24a	-0.5310408
6	0x3fecd002	1.8500979
7	0xbf8c1414	-1.0943627
8	0x3db3972e	0.087690696
9	0xbf5e811c	-0.86915755
10	0x3f4bd9f9	0.79629475
11	0x3ee87361	0.45400527
12	0x3fb4238d	1.4073349
13	0x3fb700c1	1.4297105
14	0x3f30cfce	0.69067085
15	0x3f18ead9	0.5973335
16	0x3fc42079	1.532241
17	0x4008a116	2.134832
18	0x3ecdd324	0.4020015
19	0x3e4efbb6	0.20213208
20	0x3f80239b	1.0010866
21	0x3fd266a7	1.6437577
22	0x3fba9c33	1.4578918
23	0x3fe7d1ea	1.8110936
24	0xbfafaeec	-1.3725257
25	0x3f5cf5cb	0.8631255
26	0x3f793877	0.97351784
27	0xbfb66329	-1.4249011
28	0xbd9942de	-0.07483457
29	0xbf8c2336	-1.0948246
30	0xbf8a2c1d	-1.0794712
31	0xbf378dad	-0.71700555
32	0xbf811486	-1.0084388
33	0xbf2c2883	-0.67249316
34	0x3ff1f59c	1.8903079
35	0x4058c6d7	3.3871362
36	0x3f4a32d3	0.789838
37	0x3e957bcb	0.2919601
38	0x3e5d26f2	0.21596888
39	0xbd5db05d	-0.05412327
40	0x3ee770ae	0.45203155
41	0x402c2b9f	2.6901624
42	0xbe97b0cc	-0.29627073
43	0x3f76ad30	0.96358013
44	0xbf9426fd	-1.1574398
45	0xbec4fce1	-0.3847418
46	0x3f7bd8d2	0.98377717
47	0x3ecd78fb	0.40131363
48	0xbfce7bd1	-1.6131536
49	0xc03e72d6	-2.975759
50	0x3f8fd9b4	1.1238313
51	0x3d178d8d	0.037000228
52	0x3e5a6071	0.21325852
53	0xbfa6fb27	-1.3045396
54	0xbf8f5bf7	-1.119994
55	0xbed29654	-0.41130316
56	0x3f344d7c	0.7043073
57	0xbf8647bb	-1.049064
58	0xbf02407a	-0.50879633
59	0xbf41b0ea	-0.75660574
60	0xbfb413ba	-1.406852
61	0xbfaf4cf0	-1.3695354
62	0x3f7fb120	0.99879646
63	0x3fa1064c	1.2580047
64	0xbe2bc297	-0.16773449
65	0x3fa6310a	1.2983716
66	0xc00ac24b	-2.1681087
67	0xbfe4b5f6	-1.786803
68	0x3cfbb9cc	0.030728243
69	0x3f7bb2d3	0.9831974
70	0xbfa34717	-1.275607
71	0x3f662cfd	0.89912397
72	0x3f470ebd	0.77756864
73	0xbf0b4750	-0.5440569
74	0xbf3d65e0	-0.73983574
75	0x3e171c63	0.14756922
76	0xbeeadf78	-0.45873618
77	0x3d1cadcd	0.038251687
78	0xbe4fe1c4	-0.20300967
79	0x3f77ba38	0.9676852
80	0x3fb417d9	1.4069778
81	0x4037c108	2.8711567
82	0xbf608c03	-0.8771364
83	0x3f8771b5	1.0581576
84	0xbfd37dae	-1.6522729
85	0x3f9ad813	1.2097191
86	0xbead61c0	-0.3386364
87	0x3f6b4b9c	0.91912246
88	0x3f9f635a	1.2452195
89	0x3fd71916	1.6804531
90	0xbf5c78ff	-0.86122125
91	0x3f162f27	0.586657
92	0x3f2d13cc	0.6760833
93	0x3f231b4b	0.6371352
94	0x3f8d6495	1.104632
95	0x3f5d2e13	0.8639843

arith.constant14 f4 [1, 1, 3, 32]
0	0xbec1b3ff	-0.3783264
1	0xbe3c89bc	-0.18411916
2	0x3eea60aa	0.45776874
3	0x3e6fa0fa	0.23401251
4	0x3ec74fa5	0.3892795
5	0x3f86004c	1.0468841
6	0x3edacb30	0.42733145
7	0x3f2439f0	0.64150906
8	0xbfa30b88	-1.2737894
9	0x3f062490	0.5239954
10	0x3da1086e	0.07862936
11	0xbdd9446d	-0.10608754
12	0xbedbded2	-0.42943436
13	0xbd755184	-0.059892192
14	0x3f0b0fbf	0.543209
15	0xbf7b8179	-0.98244435
16	0x3f3a8cc7	0.7287106
17	0x3ff05050	1.877451
18	0x3f489e2a	0.7836634
19	0x3f68d44a	0.9094893
20	0xbef823fa	-0.48464948
21	0xbd832358	-0.06403226
22	0xbefbdfce	-0.49194187
23	0xbed948c7	-0.42438337
24	0x3f38b7a6	0.72155225
25	0xbf8365e7	-1.0265473
26	0xbf478d8e	-0.7795037
27	0x3f54a587	0.83065075
28	0xbf0f9ade	-0.56095684
29	0xbd13ce73	-0.036085557
30	0xbedefcad	-0.4355215
31	0xbf3d5678	-0.73960066
32	0xbea48d36	-0.32138985
33	0x3f230b01	0.63688666
34	0xbfb726b2	-1.4308684
35	0x3ef4bbd8	0.47799563
36	0xbf6bdb64	-0.9213164
37	0x3f117a7c	0.5682752
38	0x3ea63f22	0.32470042
39	0x3e72fe22	0.23729756
40	0x3ef56d87	0.47935125
41	0xbf5630b6	-0.83668077
42	0xbec45745	-0.3834783
43	0xbf3fa493	-0.74860495
44	0xbf7b26f5	-0.9810632
45	0xbf2e4569	-0.6807466
46	0x3f92afab	1.145986
47	0xbeea9b9e	-0.45821851
48	0x3f3af4cc	0.7302978
49	0xc061e800	-3.5297852
50	0x3ecc7473	0.39932594
51	0xbeee3834	-0.46527255
52	0x3f97ede6	1.1869476
53	0x3f3de719	0.7418075
54	0x3f378bcb	0.7169768
55	0xbf4efc7c	-0.8085401
56	0xbdc09022	-0.09402491
57	0xbec53df4	-0.3852383
58	0x3e4f5ba4	0.20249802
59	0xbeaa5d54	-0.3327433
60	0xbe3dc0a1	-0.18530513
61	0x3f9d7b13	1.2303184
62	0xbdc8233d	-0.09772346
63	0x3f7d9b1a	0.9906479
64	0xbec1ee57	-0.3787715
65	0xbf127009	-0.572022
66	0xbf87f968	-1.0622988
67	0x3e917509	0.28409603
68	0xbeb835cc	-0.35978544
69	0x3c3dada4	0.011577044
70	0x3ed84c0e	0.42245525
71	0xbe18a981	-0.1490841
72	0xbf95763c	-1.1676707
73	0x3f8e6e97	1.1127499
74	0xbf17f1f3	-0.5935356
75	0xbef1163a	-0.4708727
76	0x3f49cfa5	0.78832465
77	0x3f96c17c	1.1777797
78	0xbf896e56	-1.0736797
79	0x3edd855b	0.43265805
80	0x3eed8ea5	0.46397892
81	0x3f32d94b	0.6986281
82	0x3d9be6e1	0.07612396
83	0x3f58ab4d	0.84636384
84	0xbfbaadcc	-1.4584289
85	0x3ea2f0e6	0.31824416
86	0xbf53f11e	-0.8278979
87	0xbf4ae923	-0.7926199
88	0x3f9855f0	1.1901226
89	0xbe0f31f2	-0.13983896
90	0xbf74613d	-0.95460874
91	0xbf867b20	-1.0506325
92	0xbf1f65c7	-0.62264675
93	0xbc1ecbb9	-0.009692126
94	0x3fa72b9b	1.3060182
95	0xbf92875e	-1.1447561

arith.constant15 f4 [1, 1, 3, 32]
0	0xbec48a86	-0.38386935
1	0xbea8c1d0	-0.32960367
2	0xbf166b2b	-0.58757275
3	0xbf85a222	-1.0440104
4	0x3edb7d1d	0.4286889
5	0xbea2fe6e	-0.3183474
6	0xbebdeadd	-0.3709325
7	0xbe44c682	-0.1921635
8	0x3f6ff80d	0.9373787
9	0x3e95f5b0	0.29289007
10	0xbf8feb69	-1.1243716
11	0xbf236e9d	-0.6384066
12	0xbeed87f2	-0.4639278
13	0x3e565212	0.20929745
14	0x3e521a34	0.20517808
15	0x3ec70f8b	0.38879046
16	0xbf8ef543	-1.1168598
17	0x3f90648a	1.1280682
18	0x3f887140	1.0659561
19	0xbeba90f4	-0.36438715
20	0x3f1d36a4	0.614115
21	0x3f60fdaf	0.8788709
22	0xbeebfc8d	-0.46091118
23	0x3fb15242	1.3853228
24	0xbf5ecbbd	-0.8702963
25	0x3f8cf185	1.1011206
26	0xbf701c37	-0.9379305
27	0xbf392163	-0.7231657
28	0xbea6d316	-0.3258292
29	0xbf65dd30	-0.8979063
30	0xbed4e44a	-0.4158042
31	0x3f424e91	0.7590113
32	0xbed1349d	-0.40860453
33	0xbebf15d2	-0.37321335
34	0x3f853dba	1.0409462
35	0x3fac4173	1.3457474
36	0x3f231bbc	0.63714194
37	0x3f7dd176	0.9914774
38	0xbf529bbe	-0.82268894
39	0xbea6f067	-0.32605287
40	0x3ef486b1	0.4775901
41	0xbe1b92c4	-0.15192705
42	0x3e1fccac	0.1560542
43	0x3f6c13e9	0.9221788
44	0xbde492ad	-0.11160789
45	0xbdf502ad	-0.11963401
46	0x3eb29512	0.34879357
47	0xbef2ddd3	-0.47434863
48	0xbd83d086	-0.06436257
49	0x3f3b69f2	0.73208535
50	0xbefa1742	-0.4884587
51	0x3f73e4ea	0.9527117
52	0xbda2e955	-0.07954661
53	0xbef7396f	-0.48286006
54	0xbd7b4ac8	-0.061350614
55	0x3e5a9548	0.21346009
56	0xbea2f077	-0.31824085
57	0xbf1e7332	-0.61894524
58	0x3f060c43	0.5236246
59	0xbe1f0f0f	-0.15533088
60	0x3e31d7a9	0.17367424
61	0xbd83314d	-0.06405888
62	0xbedcc275	-0.4311711
63	0xbf7bcf9d	-0.9836367
64	0x3eac9126	0.3370449
65	0x3bb4a802	0.005513192
66	0xbf170c54	-0.59003186
67	0xbec72f29	-0.38903168
68	0x3e3b2442	0.1827555
69	0xbe12cc6b	-0.14335792
70	0x3e0f6915	0.1400493
71	0xbe892bb5	-0.26791158
72	0xbe0918c0	-0.13388348
73	0x3f56cf9c	0.83910537
74	0xbf5a18c3	-0.85194033
75	0xbf012c3d	-0.5045813
76	0xbf6ffcdf	-0.93745226
77	0x3f7fbdc7	0.9989895
78	0x3f75433f	0.95805734
79	0x3f1647fe	0.587036
80	0x3f05e5ad	0.5230358
81	0xbfbf3758	-1.4938765
82	0x3f163dbc	0.5868795
83	0xbf089b82	-0.53362286
84	0x3ed7563e	0.42057985
85	0x3f36ba63	0.71378154
86	0x3f3b3262	0.73123753
87	0x3f0107fc	0.5040281
88	0xbf3bbe75	-0.7333749
89	0xbe448b53	-0.19193773
90	0xbf4edb05	-0.8080295
91	0xbe386f8e	-0.18011305
92	0xbf735f94	-0.95067716
93	0x3ed1022c	0.4082197
94	0xbde74337	-0.11292117
95	0xbe74e8c4	-0.23916918

arith.constant16 f4 [1, 1, 3, 64]
0	0x3ec09f4b	0.3762153
1	0x3fa4ef9b	1.2885622
2	0x3e7b4666	0.24538574
3	0xbf8cdb14	-1.1004357
4	0xbf959903	-1.168732
5	0xbe18323b	-0.14862911
6	0x3f070127	0.52736133
7	0xbf628077	-0.8847727
8	0xbf5c1a8c	-0.8597801
9	0xbf0543e7	-0.52056736
10	0x3fc381f5	1.5274035
11	0xbea28af9	-0.31746653
12	0xbf86681c	-1.0500522
13	0x3ec30bb6	0.38094872
14	0x3f1863b9	0.59527165
15	0x3f577ea3	0.8417761
16	0xbeeef163	-0.46668538
17	0xbf91a5e0	-1.1378746
18	0xbf806a70	-1.0032482
19	0x3f6222a2	0.88334095
20	0x3c5d4e01	0.013507367
21	0xbeecda3e	-0.46260256
22	0x3e8bcb46	0.27303523
23	0xbf29c6f7	-0.6631922
24	0xbe355f0f	-0.17712043
25	0x3eaa3427	0.33242914
26	0xbfa4d8e5	-1.2878691
27	0x3f4662cb	0.77494496
28	0xbf0f36f4	-0.55943227
29	0x3f8614ef	1.0475138
30	0x3f45e672	0.77304757
31	0xbf44edad	-0.76925164
32	0x3e15d103	0.14630513
33	0x3f531461	0.8245297
34	0xbd8bfd9c	-0.068354815
35	0xbf056ba1	-0.52117354
36	0x3f22b5ca	0.6355864
37	0xbf5bc13a	-0.85841715
38	0xbe06d33e	-0.1316652
39	0x3f07827c	0.5293348
40	0xbf14bb9f	-0.5809879
41	0xbf218f77	-0.63109535
42	0xbf96c51a	-1.1778901
43	0xbf53596f	-0.8255834
44	0x3f3f99a8	0.74843836
45	0x3fb751df	1.432186
46	0x3f5ba4ff	0.8579864
47	0xbf574173	-0.8408424
48	0x3f2fc2e2	0.6865674
49	0x3db76fc6	0.08956866
50	0x3f203797	0.62584823
51	0xbf02605e	-0.50928295
52	0x3ed0a01c	0.40747154
53	0x3e19d33a	0.15021983
54	0xbf3cfa24	-0.73819184
55	0x3f28321a	0.6570145
56	0xbf87919a	-1.0591309
57	0xbebadb19	-0.36495283
58	0xbfc27dfe	-1.51947
59	0x3f00d214	0.50320554
60	0xbf5a2384	-0.8521044
61	0xbe9f84e4	-0.31156075
62	0xbf931925	-1.1492049
63	0x3f7750cb	0.96607655
64	0x3f294122	0.6611501
65	0x3f1481b1	0.58010393
66	0x3f747b5e	0.95500743
67	0xbed8195c	-0.42206848
68	0x3e39e9b6	0.1815556
69	0xbfa5554d	-1.2916657
70	0x3f58ca89	0.84684044
71	0x3f2559b2	0.6458999
72	0x3f07d23d	0.53055173
73	0xbfc9f1fc	-1.5776973
74	0xbed056df	-0.40691277
75	0xbe0a5130	-0.13507533
76	0x3e97e4e6	0.29666823
77	0x3f945a49	1.1590053
78	0x3f13329f	0.57499117
79	0xbf04dbdd	-0.51897985
80	0xbeb2edc7	-0.34947035
81	0x3f0ce829	0.5504175
82	0xbf9a452b	-1.2052358
83	0x3f0e1d31	0.5551329
84	0x3fb217fd	1.3913571
85	0xbf360f58	-0.7111716
86	0xc001fc37	-2.031019
87	0x3ebf463b	0.3735827
88	0xbfaec7a5	-1.3654677
89	0x3e950105	0.2910234
90	0xbe0e25b2	-0.13881567
91	0x3dacbb85	0.08434204
92	0x3ea8e99a	0.32990724
93	0xbf1f9f41	-0.6235238
94	0x3e3e9ec9	0.18615259
95	0x3f43237e	0.7622603
96	0xbf8c41a5	-1.0957533
97	0xbe2a2fde	-0.16619822
98	0xbe218776	-0.1577433
99	0xbf23b7fe	-0.63952625
100	0xbf67aa0b	-0.9049384
101	0xbf328ada	-0.6974312
102	0xbfc776cd	-1.558313
103	0x3f1aaa27	0.6041588
104	0x3f07ea95	0.5309232
105	0xbef5a262	-0.4797545
106	0x3f202b38	0.62565947
107	0x3f5d8a6e	0.8653935
108	0xbf1ff7e9	-0.62487656
109	0xbe2856ff	-0.16439436
110	0xbf8af437	-1.0855778
111	0x3f580987	0.8438954
112	0x3f90e61c	1.1320224
113	0x3f2b6d80	0.6696396
114	0x3f574efe	0.8410491
115	0xbf6c094a	-0.92201674
116	0xbf6ce480	-0.92536163
117	0xbeec0edf	-0.46105096
118	0xbf4b0315	-0.7930158
119	0xbf4d0db3	-0.8009903
120	0x3f44e416	0.7691053
121	0xbf6d84d4	-0.92780805
122	0xbfae27fa	-1.360595
123	0x3f067b26	0.5253166
124	0xbefa53dc	-0.48892105
125	0x3f94aa26	1.1614425
126	0x3d3fce5c	0.04682766
127	0x3f948dad	1.1605736
128	0x3f0ad7db	0.5423562
129	0xbf64358e	-0.8914422
130	0x3f61277f	0.8795089
131	0x3e3a20ff	0.1817665
132	0x3f51b4ea	0.8191668
133	0xbf0a69d8	-0.54067755
134	0x3f686780	0.9078293
135	0x3f2c257b	0.6724469
136	0x3f052e3d	0.5202368
137	0xbe8520d2	-0.26001602
138	0xbf92b227	-1.1460618
139	0xbf9598ea	-1.1687291
140	0xbf64da32	-0.8939544
141	0x3e8e7c72	0.2782932
142	0xbf799e47	-0.9750714
143	0x3f0ec36a	0.5576693
144	0x3f9b32fb	1.2124933
145	0xbefe617e	-0.49683756
146	0xbdf41ace	-0.11919175
147	0xbcfafa94	-0.030637063
148	0x3f3ad8a6	0.7298683
149	0x3f3c049b	0.7344453
150	0xbd2eb496	-0.04265269
151	0x3f21b9b2	0.63173974
152	0xbea75dd6	-0.3268878
153	0x3fa65e93	1.2997612
154	0xbd9c6357	-0.07636135
155	0xbfb58360	-1.4180717
156	0x3f4be86b	0.79651517
157	0xbf99ea54	-1.2024636
158	0xbf93465d	-1.1505848
159	0xbfa5ada3	-1.2943615
160	0x3fc4a98f	1.5364245
161	0x3f400912	0.7501384
162	0x3f95a98b	1.1692365
163	0xbf43530a	-0.7629858
164	0x3f806633	1.0031189
165	0x3f34bfca	0.70605147
166	0x3e4a94e8	0.19783366
167	0x3f224187	0.63381237
168	0xbfa5619c	-1.2920413
169	0x3f07558e	0.5286492
170	0x3f44b94e	0.7684525
171	0x3f1744a8	0.59089136
172	0xbee75a36	-0.45186013
173	0xbec9ebc8	-0.394377
174	0x3ff0c79b	1.8810915
175	0xbf57d347	-0.8430676
176	0xbf2d06dd	-0.675886
177	0x3f411058	0.75415564
178	0xbf23f0b9	-0.6403919
179	0xbf16e5f4	-0.5894463
180	0x3f6aa2cb	0.9165465
181	0xbf56ca3f	-0.83902353
182	0xbe6e0fc0	-0.23248196
183	0xbf5c3153	-0.8601276
184	0xbf442507	-0.76619
185	0x3e970c25	0.29501453
186	0xbf816299	-1.0108215
187	0x3f478002	0.779297
188	0xbf5543ae	-0.83306396
189	0x3f6ed47a	0.93292964
190	0xbf5cc8ef	-0.862441
191	0x3ebf2baa	0.37338

arith.constant17 f4 [1, 1, 3, 64]
0	0xbea0bf90	-0.3139615
1	0x3e864ade	0.26228994
2	0x3f3cb214	0.73709226
3	0x3f1578e7	0.5838761
4	0x3f2158f3	0.6302635
5	0x3f9f50e7	1.2446564
6	0xbdc41831	-0.09574927
7	0x3f9421e7	1.1572846
8	0xbd031f21	-0.03201211
9	0xbefc262e	-0.4924788
10	0x3efdddaa	0.4958318
11	0x3e6a1070	0.22857833
12	0x3f099ced	0.53755075
13	0x3f97b5e8	1.1852388
14	0x3f19f09c	0.60132766
15	0x3ee00d44	0.4376012
16	0x3ecb017e	0.39649576
17	0x3f51e53a	0.81990397
18	0xbf51a95f	-0.81899065
19	0xbdfd84dd	-0.12378857
20	0xbe8fe423	-0.28103742
21	0xbd5693ae	-0.052386932
22	0x3fbda937	1.4817265
23	0xbf13362e	-0.57504547
24	0xbe87fcbf	-0.26560017
25	0x3f8e9ece	1.1142213
26	0xbedcecb4	-0.4314934
27	0xbf23a994	-0.6393063
28	0xbd94dbde	-0.07268499
29	0x3ed12e34	0.40855563
30	0xbf968c33	-1.1761535
31	0xbf25c275	-0.6474984
32	0xbfa3db3f	-1.2801284
33	0x3e081995	0.13291009
34	0xbe7e9f79	-0.24865521
35	0x3f2f1e50	0.6840563
36	0xbeb10109	-0.34571102
37	0x3f0a8fad	0.5412548
38	0x3f3c193a	0.7347599
39	0xbfceacb3	-1.6146454
40	0x3e4bd5a8	0.19905722
41	0x3f2dfec1	0.6796685
42	0xbf72275b	-0.945913
43	0x3f890a27	1.0706223
44	0xbf2bf883	-0.67176074
45	0xbeae1b4b	-0.34005198
46	0x3f57b2d0	0.8425722
47	0xbf2a96bc	-0.6663625
48	0xbf32ba48	-0.6981549
49	0xbf555d4e	-0.83345497
50	0xbf7db519	-0.9910446
51	0xbf6ee082	-0.9331132
52	0xbf33fb3e	-0.7030524
53	0x3eb6a782	0.35674673
54	0x3f36d1a6	0.7141365
55	0xbf6f7cfc	-0.93550086
56	0x3ef7c83d	0.48394957
57	0x3f1af42d	0.6052883
58	0x3f8241f2	1.0176375
59	0xbf5d7f59	-0.8652244
60	0x3f399a05	0.7250064
61	0xbec580e3	-0.38574895
62	0xbe936e54	-0.2879511
63	0xbef670e7	-0.48133013
64	0x3ea7ca96	0.32771748
65	0xbe35e8ca	-0.17764583
66	0xbed07259	-0.4071224
67	0xbde629f6	-0.11238472
68	0x3f09d623	0.5384237
69	0x3ed76b2d	0.42073956
70	0xbf0232a9	-0.5085855
71	0xbd06e45e	-0.03293263
72	0xbf315fe6	-0.69286954
73	0xbde75a6f	-0.11296546
74	0xbe02f86c	-0.12790078
75	0xbf99b644	-1.2008748
76	0xbceeb7bd	-0.029140348
77	0x3f10498f	0.5636224
78	0xbe347cdb	-0.17625754
79	0xbe7be181	-0.24597742
80	0xbe66153b	-0.22469036
81	0x3dcec9de	0.10097097
82	0xbe861107	-0.26184866
83	0x3f2c252c	0.6724422
84	0x3f55f0fc	0.8357084
85	0xbf599c73	-0.8500435
86	0xbfc4e28d	-1.5381638
87	0x3eac7fa0	0.3369112
88	0xbee869ed	-0.45393315
89	0x3f021352	0.5081073
90	0xbdbd2d4a	-0.09237154
91	0x3eef0a7a	0.4668768
92	0x3ef7ea96	0.48421162
93	0x3f3f402e	0.74707305
94	0x3f2df221	0.67947584
95	0xbf1ea33f	-0.61967844
96	0x3f530e4d	0.82443696
97	0xbedba948	-0.4290259
98	0x3f1bbca4	0.6083472
99	0xbeaf08a9	-0.34186295
100	0xbe6d3b2f	-0.23167108
101	0x3f825e71	1.0185071
102	0x3efd588e	0.49481624
103	0x3f4cbc95	0.79975253
104	0xbf202578	-0.6255717
105	0x3e06e6c8	0.13173974
106	0xbec2e48d	-0.38064995
107	0xbf59950a	-0.8499304
108	0x3cf00e26	0.029303622
109	0x3ed666fe	0.41875452
110	0xbf32678a	-0.6968924
111	0xbf2e065f	-0.6797847
112	0xbe9e9ba7	-0.30978128
113	0xbe05364b	-0.13008992
114	0xbdcc0ded	-0.09963594
115	0x3ebe7f79	0.3720663
116	0x3df9d32e	0.121984825
117	0x3edaa0f3	0.4270092
118	0x3e16e0e0	0.1473422
119	0x3ecb60ca	0.39722282
120	0x3f3864cf	0.7202882
121	0x3dbd80cd	0.092530824
122	0x3ca2fe73	0.019896721
123	0x3d957d71	0.07299317
124	0xbffb3e9b	-1.9628481
125	0x3ed843bb	0.42239174
126	0xbf6862a1	-0.90775496
127	0xbf14a42e	-0.5806302
128	0xbfa3006b	-1.2734503
129	0x3f810c48	1.0081873
130	0xbed48fbd	-0.41515914
131	0xbf71fbfd	-0.9452513
132	0xbf74a6ef	-0.9556722
133	0x3ed37ea8	0.4130757
134	0x3f854389	1.0411235
135	0x3f117b50	0.56828785
136	0x3f037698	0.51352835
137	0xbf63d696	-0.8899931
138	0xbf8a2792	-1.0793326
139	0xbea25c0c	-0.3171085
140	0x3f74d934	0.95643926
141	0x3f87ea1d	1.0618321
142	0xbf8c40aa	-1.0957234
143	0x3e95732e	0.29189438
144	0x3f06a64e	0.5259751
145	0x3f4f1d7a	0.8090435
146	0xbe777819	-0.24166907
147	0xbf15fce7	-0.58589023
148	0x3f4c5aca	0.79826033
149	0x3ed00c6b	0.40634474
150	0x3eaf3d0e	0.3422627
151	0x3efbb2d2	0.49159867
152	0xbf678778	-0.90441084
153	0x3ed42a51	0.41438535
154	0x3ea8bed4	0.3295809
155	0xbe9d6db3	-0.30747756
156	0x3f40f98b	0.7538077
157	0xbf21c654	-0.6319325
158	0x3d182913	0.037148546
159	0xbf296346	-0.66167104
160	0x3dd214ba	0.102578595
161	0xbf7724d2	-0.9654056
162	0xbf33335f	-0.7000026
163	0x3f0b1a6e	0.54337204
164	0xbf28111b	-0.656511
165	0x3ea62739	0.324518
166	0xbf22908a	-0.635018
167	0xbf8c3705	-1.0954291
168	0xbe91fe9f	-0.28514573
169	0xbd9ce748	-0.07661301
170	0x3dd12abf	0.10213231
171	0xbe43f756	-0.1913732
172	0x3f41ecc1	0.7575188
173	0x3f332b78	0.69988203
174	0xbf617690	-0.88071537
175	0x3e70d2f2	0.23517969
176	0xbeebecea	-0.4607919
177	0x3f56e8db	0.8394906
178	0xbf48b613	-0.78402823
179	0xbf875709	-1.0573436
180	0xbf23d6c4	-0.6399958
181	0x3f603ada	0.875898
182	0xbf09b15b	-0.5378625
183	0x3eb0f6b7	0.34563228
184	0xbf244278	-0.64163923
185	0xbf16da8f	-0.58927244
186	0xbfcf7f92	-1.6210806
187	0x3f2525a0	0.64510536
188	0x3f763bf1	0.96185213
189	0x3f937457	1.1519879
190	0x3f4b61a5	0.7944587
191	0xbf577d85	-0.841759

arith.constant18 f4 [1, 1, 3, 128]
0	0xbee4b786	-0.44671267
1	0xbf9f255a	-1.2433274
2	0xbc346986	-0.011011487
3	0x3f46498c	0.77455974
4	0xbeded13b	-0.43519005
5	0xbf720aef	-0.94547933
6	0x3f490612	0.7852489
7	0x3f7222f7	0.945846
8	0x3f82cf7d	1.021957
9	0xbd5425e8	-0.051793963
10	0x3f28b215	0.6589673
11	0xbea25026	-0.31701773
12	0xbfc85112	-1.5649741
13	0x3e4ea655	0.20180638
14	0x3f36e94a	0.7144972
15	0xbf67ef9d	-0.90599996
16	0x3f4d5069	0.8020082
17	0xbee8ee28	-0.454942
18	0xbf0e3f58	-0.55565405
19	0xbfc521df	-1.5400962
20	0x3f3f57bc	0.7474325
21	0x3efb710c	0.49109685
22	0x3f391d52	0.72310364
23	0xbf2bdf86	-0.67137945
24	0x3f46ac48	0.7760663
25	0x3f763aab	0.9618327
26	0xbf6f19b7	-0.9339861
27	0x3ea7bd3c	0.32761562
28	0x3f9fbf35	1.2480227
29	0xbea4a89b	-0.32159886
30	0x3abd9f8d	0.0014467106
31	0x3efa7929	0.48920563
32	0xbe386ce2	-0.18010285
33	0x3f0ece40	0.5578346
34	0x3e1c951a	0.15291253
35	0xbe0e4a45	-0.13895519
36	0xbff9c54e	-1.9513338
37	0xbf1c1a31	-0.60977465
38	0xbfcea387	-1.6143655
39	0xbf11f0e5	-0.570082
40	0xbf308bc9	-0.68963295
41	0xbf38a42c	-0.72125506
42	0x3e8b16a1	0.27165702
43	0x3f8b0f4c	1.0864043
44	0xbdc117f9	-0.094284005
45	0xbf676f8f	-0.904046
46	0x3f9310c2	1.1489489
47	0x3fab1197	1.3364743
48	0x3f460606	0.7735294
49	0x3da80b47	0.08205276
50	0x3fc03ade	1.5017965
51	0x3edd5ffc	0.43237293
52	0x3f821d39	1.0165168
53	0x3f38ea4f	0.72232527
54	0x3e6e8a01	0.23294832
55	0x3eff3146	0.4984228
56	0x3f3bb0dc	0.7331674
57	0xbe8e7f58	-0.2783153
58	0x3f898165	1.0742613
59	0x3f55d171	0.8352271
60	0x3f21764f	0.6307115
61	0xbf8e18b4	-1.1101289
62	0x3e9fa6e4	0.31182015
63	0x3f492e8b	0.78586644
64	0x3fb6d197	1.4282712
65	0x3fcc1ca8	1.5946245
66	0x3e1d37a7	0.15353261
67	0xbe5d00d1	-0.21582343
68	0x3fbad25d	1.4595448
69	0x3e47b8e0	0.19504118
70	0x3f27b2e3	0.65507334
71	0xbf8185d9	-1.0118972
72	0xbf6f38f1	-0.9344626
73	0x3f4e649b	0.8062226
74	0xbf6b7854	-0.9198048
75	0xbf12d6b4	-0.5735886
76	0xbf2ab715	-0.6668561
77	0x3f41565c	0.755224
78	0xbf3a92a8	-0.7288003
79	0x3f6bd488	0.9212117
80	0x3fb63fc5	1.4238211
81	0x3ddcba0c	0.10777673
82	0xbf372b51	-0.7155047
83	0x3f6307f0	0.88683987
84	0xbf965c4c	-1.1746917
85	0xbf812833	-1.0090393
86	0x3f3c1c9c	0.73481154
87	0x3d511308	0.05104354
88	0xbf1fb993	-0.6239254
89	0xbe3253da	-0.174148
90	0xbe7a5f4e	-0.24450418
91	0x3f8c3d94	1.0956292
92	0xbf86ee0f	-1.05414
93	0xbdc97067	-0.09835892
94	0xbea0b05b	-0.3138455
95	0xbf4bcf77	-0.7961344
96	0x3f356a3f	0.70865244
97	0x3f3cb221	0.73709303
98	0x3f30e0f4	0.6909325
99	0xbf175597	-0.59114975
100	0xbf21c815	-0.63195926
101	0x3eab3b21	0.3344355
102	0x3f867b64	1.0506406
103	0xbf4b13d1	-0.7932711
104	0xbf807051	-1.0034276
105	0xbe837913	-0.2567831
106	0x3f38d387	0.72197765
107	0x3ea4ba6c	0.3217348
108	0x3f29ab2e	0.66276824
109	0x3f61b4bb	0.881664
110	0x3e81d573	0.2535816
111	0xbecce1ed	-0.40016118
112	0xbfb5122d	-1.4146172
113	0x3f387987	0.72060436
114	0x3ec35b68	0.38155675
115	0xbfae1b84	-1.3602147
116	0xbfa9ff08	-1.3280954
117	0xbf128d39	-0.5724674
118	0x3f01ab51	0.50652033
119	0x3f46b52b	0.7762019
120	0xbf0c1926	-0.54725873
121	0x3f5b72f8	0.85722303
122	0x3e806612	0.25077873
123	0xbf46710e	-0.7751626
124	0x3f42a10b	0.7602698
125	0xbf2453d8	-0.64190435
126	0x3f4fd4fa	0.8118435
127	0xbeca2399	-0.39480284
128	0x3f932c47	1.1497887
129	0xbe70faaf	-0.23533128
130	0xbee53dbc	-0.44773662
131	0xbe47d980	-0.19516563
132	0xbfc7cf62	-1.5610163
133	0x3f80734e	1.0035188
134	0x3e7a6d61	0.24455787
135	0x3f40e03c	0.75342155
136	0xbe8fca40	-0.28083992
137	0x3f54be5e	0.8310298
138	0xbf555d4e	-0.83345497
139	0xbf52007a	-0.8203198
140	0xbf7074e2	-0.9392835
141	0x3f0d3dde	0.55172527
142	0x3f78a985	0.97133666
143	0xbf97c1cc	-1.1856017
144	0xbeeecd1e	-0.46640867
145	0xbf772884	-0.96546197
146	0xbe91d8b2	-0.28485638
147	0x3ee0947d	0.43863288
148	0x3ed06456	0.4070155
149	0x3e9b2ec7	0.30309126
150	0x3f4dbc5d	0.80365545
151	0x3f7a63da	0.9780861
152	0xbf085468	-0.53253794
153	0xbf2a5024	-0.66528535
154	0x3f4538a4	0.7703955
155	0x3ec1caf6	0.3785016
156	0x3f05e5ad	0.5230358
157	0x3f985e76	1.1903827
158	0xbe569491	-0.20955111
159	0xbf244da3	-0.64180964
160	0x3f8496e1	1.0358545
161	0x3ef741c6	0.4829237
162	0x3f8a08bd	1.0783917
163	0xbf9aa564	-1.2081723
164	0xbef27f1d	-0.47362605
165	0x3f72e06a	0.9487368
166	0x3f91ad57	1.1381024
167	0x3ee7a31a	0.45241624
168	0xbf8217e4	-1.0163541
169	0x3ee2b52c	0.44278848
170	0x3f515ebd	0.81785184
171	0xbd88112b	-0.066438995
172	0x3f52ce43	0.8234598
173	0xbf3b6854	-0.7320607
174	0x3db48c84	0.08815864
175	0xbe86c924	-0.26325333
176	0x3f987afb	1.1912531
177	0xbf926700	-1.1437683
178	0xbed2d67c	-0.41179264
179	0xbfb3f6ca	-1.4059689
180	0xbf01fc05	-0.50775176
181	0xbf247a7e	-0.6424941
182	0xbfb5ac8e	-1.4193285
183	0xbf3a61bf	-0.728054
184	0x3eb2db0a	0.3493274
185	0xbf52d11a	-0.82350314
186	0x3eca1fd1	0.394774
187	0xbf2c7436	-0.67364824
188	0x3f585bd1	0.845151
189	0xbef935ef	-0.4867396
190	0xbf6fea27	-0.93716663
191	0xbf65b6f8	-0.89732313
192	0xbec29038	-0.38000655
193	0x3e69f904	0.22848898
194	0x3ebe6b74	0.37191355
195	0x3f98497a	1.1897423
196	0x3f28442a	0.6572901
197	0x3f1e44ae	0.61823547
198	0xbee902b4	-0.45509875
199	0xbe9606ee	-0.29302162
200	0x3f97faed	1.1873451
201	0xbeaa8d31	-0.33310845
202	0xbdb0f054	-0.08639589
203	0x3f620ae4	0.8829787
204	0xbf294c07	-0.66131634
205	0x3f5c85e7	0.8614182
206	0x3f4ec5ea	0.8077074
207	0x3f2b834d	0.66997224
208	0x3f1d0462	0.6133481
209	0xbe68a44d	-0.22718926
210	0xbec65532	-0.38736874
211	0xbe9e6b6a	-0.30941325
212	0x3f2dafad	0.67846185
213	0x3fa63765	1.2985655
214	0xbf231c82	-0.63715374
215	0xbf522b17	-0.82097
216	0x3f437998	0.7635741
217	0x3f9fc7cc	1.2482848
218	0xbf99617b	-1.1982874
219	0xbcc4d6dd	-0.024028236
220	0x3e9e386f	0.3090243
221	0xbee5ffdd	-0.4492177
222	0x3f9d9dab	1.2313741
223	0x3f0ce4b1	0.55036455
224	0x3f391553	0.72298163
225	0xbf6a72ef	-0.91581625
226	0xbfa727a7	-1.3058976
227	0xbee8f0b7	-0.4549615
228	0xbf1f5692	-0.6224147
229	0x3f6c4790	0.92296696
230	0xbe1c5bb0	-0.15269351
231	0x3fa76292	1.3076956
232	0x3f2442ca	0.6416441
233	0xbf0c9275	-0.54910976
234	0x3f9d83a1	1.2305795
235	0xbf5fc9e2	-0.87417424
236	0x3f860951	1.0471593
237	0xbf8b9d49	-1.0907375
238	0xbf6c1308	-0.9221654
239	0x3f086237	0.53274864
240	0x3f51270a	0.81700194
241	0x3f7eee6e	0.99582565
242	0xbf5eb0c8	-0.86988497
243	0x3e3fd395	0.18733056
244	0xbf657ecf	-0.8964662
245	0x3f6e9685	0.93198425
246	0x3f681e90	0.90671635
247	0x3f329e3c	0.69772696
248	0xbf12caf5	-0.5734094
249	0xbeb34146	-0.35010737
250	0x3f384895	0.7198575
251	0xbe368403	-0.17823796
252	0xbe3f85ae	-0.18703339
253	0xbf319c1b	-0.69378823
254	0x3edd3dcb	0.43211207
255	0xbf966b32	-1.1751463

arith.constant19 f4 [1, 1, 3, 128]
0	0xbda09f59	-0.07842893
1	0xbf31e795	-0.6949399
2	0xbe65f0af	-0.22455095
3	0xbf0028c1	-0.50062186
4	0xbf502883	-0.81311816
5	0xbee0776c	-0.43841112
6	0xbf5faf7d	-0.8737715
7	0xbf5edd48	-0.870564
8	0xbf51acec	-0.8190448
9	0xbe85d33a	-0.26137716
10	0xbf6c00ae	-0.9218854
11	0xbf7af6c2	-0.9803277
12	0x3f187154	0.59547925
13	0xbe7bfb28	-0.24607527
14	0xbecf2235	-0.40455785
15	0xbf3c4eb5	-0.735576
16	0xbec81626	-0.39079398
17	0xbf69e525	-0.9136527
18	0xbf085b52	-0.53264344
19	0xbeac2a0f	-0.33625838
20	0xbee50789	-0.4473231
21	0x3dcad29a	0.0990345
22	0xbf2f5760	-0.684927
23	0x3e2125c7	0.15737067
24	0x3ec72e2c	0.38902414
25	0xbf461a37	-0.7738375
26	0x3f6f7976	0.9354471
27	0xbd8f7ef0	-0.07006633
28	0xbf22f113	-0.636491
29	0xbdb01e22	-0.085994974
30	0xbed720df	-0.42017266
31	0x3f0552b9	0.5207935
32	0xbe4ef3d1	-0.20210196
33	0xbf5e1728	-0.86754084
34	0xbf8a114e	-1.0786531
35	0x3f391891	0.7230311
36	0x3f4228f8	0.75843763
37	0x3f184793	0.59484214
38	0x3e234dd8	0.15947664
39	0xbf16f131	-0.5896178
40	0xbf6d8f1d	-0.927965
41	0xbf1a24a5	-0.60212165
42	0x3ef7f405	0.4842836
43	0xbf731eb5	-0.9496873
44	0xbcd9f380	-0.026605368
45	0x3fda9520	1.7076759
46	0x3f6c33bf	0.9226646
47	0x3f1212fc	0.5706022
48	0xbe159f85	-0.14611633
49	0xbf065b39	-0.52482945
50	0x3f10ec34	0.5661042
51	0x3f7f0def	0.99630636
52	0xbf19ef69	-0.60130936
53	0x3ecf1661	0.4044676
54	0xbe6164c7	-0.220111
55	0x3f5d8c09	0.865418
56	0xbe40a2bf	-0.18812083
57	0x3f0cd8c9	0.5501829
58	0x3ec1624c	0.37770307
59	0x3e4ba719	0.19887961
60	0x3f3bd82f	0.73376745
61	0xbcf2c039	-0.029632675
62	0xbd7a602f	-0.061126884
63	0x3f666efe	0.9001311
64	0xbf1c5e7b	-0.61081666
65	0x3f459009	0.77172905
66	0xbf85e58c	-1.0460677
67	0x3e66ee4b	0.22551839
68	0xbf5224dd	-0.820875
69	0x3fa89103	1.3169254
70	0x3f4cb02d	0.7995632
71	0xbed62baf	-0.41830203
72	0xbe7d16e8	-0.2471577
73	0xbccac18d	-0.024750495
74	0xbee67f9f	-0.45019242
75	0x3dd24e0c	0.102687925
76	0xbdf01c99	-0.117242046
77	0x3ea84b99	0.32870176
78	0x3f2079cb	0.6268584
79	0x3f4dbb03	0.8036348
80	0xbf2f77da	-0.68542254
81	0x3f7b57c4	0.98180795
82	0x3cd62edc	0.026145391
83	0x3ee809b4	0.45319903
84	0xbedaa910	-0.4270711
85	0x3f835bcd	1.026239
86	0xbec58c90	-0.38583803
87	0xbf85f6ba	-1.046592
88	0xbf018450	-0.5059252
89	0x3ef39794	0.47576582
90	0xbf48c3fb	-0.7842404
91	0xbea185f1	-0.31547502
92	0x3e9abf57	0.30224106
93	0x3f9fdbb3	1.2488922
94	0xbeb9e0b8	-0.3630426
95	0x3f00d0f4	0.5031884
96	0xbec7ff07	-0.39061758
97	0x3f2e02c6	0.6797298
98	0x3f3471e3	0.7048628
99	0xbf12ebe6	-0.573912
100	0x3ed1fec5	0.41014686
101	0xbe7c209e	-0.24621817
102	0xbf957976	-1.1677692
103	0x3f3119e7	0.6918015
104	0xbeeaa472	-0.45828587
105	0xbf3e37f8	-0.7430415
106	0x3f3e2a4d	0.74283296
107	0xbf1151ff	-0.5676574
108	0x3f34e916	0.7066816
109	0xbf4bedce	-0.79659736
110	0x3f408c5f	0.7521419
111	0xbea40fba	-0.32043248
112	0x3e3ec4b3	0.18629722
113	0x3e12f0fd	0.14349742
114	0xbea58854	-0.32330573
115	0x3f8f59fc	1.1199336
116	0xbf1f4272	-0.6221076
117	0x3f861163	1.0474056
118	0x3f03586b	0.5130679
119	0x3f3b419f	0.73147005
120	0x3eb27ccf	0.34860846
121	0xbfac9d7b	-1.3485559
122	0xbf09f089	-0.5388265
123	0xbec2bd32	-0.3803497
124	0xbf8e8562	-1.1134455
125	0x3f1a3b14	0.60246396
126	0xbf0d9692	-0.5530788
127	0xbf5b98dc	-0.8578012
128	0x3f046c23	0.51727504
129	0xbec3be68	-0.38231206
130	0xbf80c742	-1.0060809
131	0x3d91ce19	0.07119388
132	0xbefb00ef	-0.4902415
133	0xbeb6223f	-0.35573003
134	0x3ec19351	0.37807706
135	0xbf328f29	-0.69749695
136	0x3f35024b	0.70706624
137	0x3f36a492	0.71344864
138	0x3e0d2195	0.13782342
139	0x3eb35ef5	0.35033384
140	0x3f8175c2	1.0114062
141	0x3f1f1315	0.6213849
142	0x3f00dea3	0.50339717
143	0x3f3f2b1c	0.74675155
144	0x3f2abbfb	0.66693085
145	0x3ef24c3d	0.4732379
146	0x3fba96f8	1.4577322
147	0xbedb3591	-0.42814305
148	0x3efdf4df	0.49600884
149	0xbf681768	-0.90660715
150	0xbf62ef6a	-0.88646567
151	0xbed0c75e	-0.40777105
152	0x3f1e3575	0.6180032
153	0xbf0130fc	-0.5046537
154	0xbbc35ce8	-0.005962003
155	0x3f2db9ee	0.6786183
156	0x3f408e34	0.75216985
157	0xbf6e5c56	-0.93109643
158	0xbf2c54ce	-0.673169
159	0x3e2ceb6e	0.16886684
160	0xbf415a33	-0.7552826
161	0x3ee918f2	0.45526844
162	0xbeb96814	-0.36212218
163	0xbf955172	-1.166548
164	0x3f71d07b	0.9445874
165	0xbf1f8c64	-0.62323594
166	0xbf61aa7e	-0.88150775
167	0x3f1cf274	0.61307454
168	0xbf19690c	-0.59925914
169	0xbd0c5888	-0.034264117
170	0x3ee13412	0.4398504
171	0xbf5b60d1	-0.85694605
172	0xbf2c9ccc	-0.67426753
173	0x3de2c1de	0.110721335
174	0xbcf4ca25	-0.029881546
175	0xbf0e7b46	-0.5565685
176	0x3e00fb84	0.12595946
177	0xbe441e4c	-0.19152182
178	0xbeb7f1f0	-0.3592677
179	0xbd51362b	-0.05107705
180	0xbf4cbf98	-0.7997985
181	0xbf08f625	-0.53500587
182	0xbf864782	-1.0490572
183	0xbead795a	-0.33881646
184	0xbf351ef5	-0.7075036
185	0xbf25d822	-0.6478292
186	0x3e5a8d94	0.2134307
187	0x3ec5b6ff	0.38616177
188	0xbe7297ae	-0.23690674
189	0xbf9f5cf1	-1.2450238
190	0x3f4ec4ef	0.80769247
191	0xbf6aa47a	-0.9165722
192	0x3f01d345	0.50712997
193	0xbefb0517	-0.4902732
194	0x3e8ddbd0	0.27706766
195	0xbf214230	-0.6299162
196	0xbe86c531	-0.2632232
197	0xbf1fd2b6	-0.62430894
198	0x3ec89359	0.39174917
199	0xbf25f6c2	-0.6482965
200	0xbf1e7559	-0.6189781
201	0xbf29bb6c	-0.6630161
202	0xbe7ce5ce	-0.24697039
203	0xbf31ac7b	-0.6940381
204	0x3f39b93d	0.72548276
205	0x3f57ae51	0.8425036
206	0xbf667cbe	-0.9003409
207	0xbf15d3b1	-0.5852614
208	0x3f21995a	0.6312462
209	0xbdbf9670	-0.093548656
210	0xbed5c608	-0.41752648
211	0xbef4c475	-0.47806135
212	0xbeadaf79	-0.33922938
213	0x3f7c9d9f	0.9867801
214	0xbf3d7011	-0.73999125
215	0xbdf447ad	-0.119277336
216	0x3f04adef	0.518279
217	0xbf4634f5	-0.77424556
218	0xbf490ce5	-0.785353
219	0x3f5f08a4	0.8712256
220	0x3f62bc1f	0.885683
221	0xbe9ac782	-0.30230337
222	0x3f051773	0.51988906
223	0xbf1082d9	-0.5644966
224	0xbf2e706a	-0.6814028
225	0xbee62b47	-0.44954893
226	0x3f54b8d3	0.8309452
227	0xbf528bee	-0.82244766
228	0xbea38ed4	-0.31944907
229	0xbf2b33b2	-0.66875756
230	0x3ea8e00d	0.32983437
231	0x3f47fa35	0.7811616
232	0x3f2a4c18	0.6652236
233	0x3dccda66	0.10002594
234	0x3ea86848	0.3289206
235	0x3ebfc630	0.37455893
236	0xbdecc081	-0.11560155
237	0x3f02f189	0.51149803
238	0x3f167e2a	0.5878626
239	0x3ead3c06	0.33834857
240	0x3f46ad59	0.7760826
241	0xbfa75b00	-1.3074646
242	0x3f2823f4	0.6567986
243	0x3dd5e8df	0.10444807
244	0xbd40ace5	-0.047039885
245	0x3e9b9b15	0.30391756
246	0xbf00b5bd	-0.5027731
247	0x3e81d510	0.25357866
248	0x3f8537f0	1.0407696
249	0x3ea399f7	0.31953403
250	0xbeb3917b	-0.3507193
251	0xbebc961c	-0.36833274
252	0xbee154f7	-0.44010136
253	0x3f40ef3c	0.7536504
254	0x3ee0c466	0.4389984
255	0x3ea5981d	0.32342616
